…
Deprecated in NumPy 1.20; for more details and guidance: https://numpy.org/devdocs/release/1.20.0-notes.html#deprecations
  return n_batch.astype(np.int)
C:\Users\justin\PycharmProjects\cpsc464-group2\main.py:184: UserWarning: `Model.fit_generator` is deprecated and will be removed in a future version. Please use `Model.fit`, which supports generators.
  model.fit_generator(
Model: "sequential"
_________________________________________________________________
 Layer (type)                Output Shape              Param #
=================================================================
 conv2d (Conv2D)             (None, 128, 128, 32)      320

 conv2d_1 (Conv2D)           (None, 128, 128, 64)      18496

 max_pooling2d (MaxPooling2D  (None, 64, 64, 64)       0
 )

 dropout (Dropout)           (None, 64, 64, 64)        0

 conv2d_2 (Conv2D)           (None, 64, 64, 96)        55392

 max_pooling2d_1 (MaxPooling  (None, 32, 32, 96)       0
 2D)

 dropout_1 (Dropout)         (None, 32, 32, 96)        0

 flatten (Flatten)           (None, 98304)             0

 dense (Dense)               (None, 125)               12288125

 dropout_2 (Dropout)         (None, 125)               0

 dense_1 (Dense)             (None, 125)               15750

 dropout_3 (Dropout)         (None, 125)               0

 dense_2 (Dense)             (None, 5)                 630

=================================================================
Total params: 12,378,713
Trainable params: 12,378,713
Non-trainable params: 0
_________________________________________________________________
None
Epoch 1/10
1186/1186 [==============================] - 331s 279ms/step - loss: 2.9881 - accuracy: 0.4288 - val_loss: 1.9191 - val_accuracy: 0.3807
Epoch 2/10
1186/1186 [==============================] - 298s 251ms/step - loss: 1.5113 - accuracy: 0.4938 - val_loss: 1.9026 - val_accuracy: 0.3279
…
